4.best_VQ_vae__model.pth (torch, 579418 bytes, 64 tensors)

encoder.0.weight f4 [40, 1, 4, 4]
000000 62 1f 5e bd 57 dc 8c 3d 16 e7 91 bc 7b 5b 5a 3c
       -0.054229148 0.06877964 -0.017810386 0.013327475
000010 2e c1 64 3c 3a fa 87 bd 9c fd 03 3d 47 76 be 3d
       0.013962073 -0.06639524 0.032224283 0.09299903
000020 b7 c6 c4 3d e4 4a 1c bd 13 16 c7 3c 0e cb ce 3d
       0.09608214 -0.03815736 0.024302518 0.10097323
000030 6c db 9e bd c0 dd 43 3d 56 c4 86 bd e5 d0 eb ba
       -0.07756695 0.0478189 -0.06580417 -0.0017991333
000040 68 21 a5 3d 46 ea b8 bd c7 5c 08 bc d9 ca 71 bd
       0.08063012 -0.09029059 -0.008322901 -0.05903134
000050 0d eb 0b b7 15 fe 73 bd cd cb 49 3d e0 16 a4 bc
       -8.339773e-06 -0.059568483 0.049266625 -0.020030439
000060 2e 74 f2 bc b8 8f d9 bc 10 86 69 bc cd 70 57 bd
       -0.029596414 -0.026557788 -0.014253154 -0.05259781
000070 76 8e a2 3d a9 31 66 bd 63 07 b4 3c a7 eb 6c bd
       0.079373285 -0.056199703 0.021976179 -0.057841923
000080 05 91 0b bc 30 b2 c8 bc 6a 96 49 3d 73 11 df bc
       -0.008518462 -0.024499029 0.04921571 -0.02723
000090 96 93 1e bd a8 54 8d bd 49 dc 09 ba 80 14 ac 3b
       -0.038714968 -0.069009125 -0.00052589603 0.005251467
0000a0 9e 41 5b bd e4 f4 d2 ba 66 46 32 bc e9 f0 96 bb
       -0.053529374 -0.0016094712 -0.010881042 -0.0046063554
0000b0 0d eb 34 bd 97 ad c9 bd e5 d8 a4 3d 4a 26 b9 bd
       -0.044169474 -0.09847563 0.08049182 -0.09040506
0000c0 c6 c3 9d 3d 93 4f 37 3d 22 4d 9c ba 44 2c a8 3c
       0.077033564 0.044753622 -0.0011924843 0.02052892
0000d0 e3 89 9e 3b a1 7a 07 bb 60 42 47 3d 1e de a6 3d
       0.0048382147 -0.0020672458 0.048647285 0.08147834
0000e0 97 40 9d 3d 6f 86 81 bd 64 a2 8b 3d 5f af a9 3b
       0.07678335 -0.06324469 0.06818083 0.0051783766
0000f0 01 6d 0b 3d 62 a4 ae bd de 0f 92 3c 2d 1a 20 3d
       0.0340395 -0.08527447 0.017829832 0.039087463
000100 aa a4 93 3d 25 cb 90 bb 6a e5 db 3c cc d8 ae bd
       0.072091416 -0.004418748 0.026842792 -0.085374445
000110 b4 27 98 bc fe 86 d1 3d 3c 13 71 3d 1b 90 1c 3c
       -0.01857362 0.10230826 0.058856234 0.009555842
000120 72 91 5c bb dd 4e 9c 3d d1 99 8a bd 5f b0 57 bd
       -0.0033656028 0.076322295 -0.067676194 -0.052658435
000130 fe 72 6c 3d 01 59 92 3d f6 3f 2b 3d 13 14 1b 3c
       0.057726853 0.071458824 0.041809045 0.009465235
000140 5d 1e e9 3b 64 a9 ec bc a2 d1 4f bd 78 43 bf 3b
       0.0071142153 -0.028889365 -0.05073703 0.0058369003
000150 9a 92 8d 3d fe b2 6d 3c 44 ee 5d 3c e5 f6 41 bc
       0.06912728 0.014508007 0.0135455765 -0.011838649
000160 a8 51 94 3c 74 24 1a bd d7 41 b7 3d 59 56 4f bc
       0.018105343 -0.03763242 0.08948105 -0.012654864
000170 ef df d9 bd 22 06 f6 bb ef bb 46 bd 3f 62 d4 3d
       -0.10638415 -0.0075080553 -0.04851907 0.103703015
000180 9d 31 25 3c 2f 62 aa bd 84 9b 23 bd 2b 7f 71 3d
       0.0100826295 -0.08319508 -0.039943233 0.058959167
000190 3e f0 0d bc 10 8d e8 bc 0a dd 77 bc dc 37 c4 3b
       -0.008663235 -0.028387576 -0.015128383 0.0059881043
0001a0 4d 4b 25 3d 8f 4e 91 bc 3e ad 52 bd 1a a3 e7 3b
       0.040355016 -0.017737655 -0.051434748 0.007069004
0001b0 1c e2 85 3d 4b 7a 15 bd ba 1e 9b bd a2 94 ce bc
       0.065372676 -0.03649358 -0.0757422 -0.025217358
0001c0 d9 73 d4 3a ef 42 ca 3c 17 10 2c bd 61 29 2a 3c
       0.0016208842 0.02469012 -0.042007532 0.010385842
0001d0 5f 7b 21 3d 78 99 9e 3c 9d 6e df 3d f8 60 51 3d
       0.039424296 0.019360289 0.1090977 0.051117867
0001e0 1a 6d 38 3b 2c 6b c6 bc 94 ad 52 bc 04 78 78 3d
       0.0028141201 -0.024221025 -0.012858767 0.06066133
0001f0 8d 1f 7b bd ba 0d 61 bd 81 ff 82 bd 9b 67 95 3b
       -0.061309386 -0.05494473 -0.0639639 0.00455947
000200 0a 01 43 bd 7c cb 2e 3d 24 89 17 3d 62 bf 63 3d
       -0.047608413 0.042674527 0.036996022 0.05560244
000210 04 70 66 3d e3 df ec 3d 91 e1 83 bd 9d 7e 86 bc
       0.05625917 0.115661405 -0.06439508 -0.016417796
000220 8a 19 d5 bc 4d 0d e3 bc 52 b0 29 bd e1 91 6e bc
       -0.026013155 -0.027716303 -0.041427918 -0.014561147
000230 4b d2 88 3a 9b c9 fa bc 09 d3 f9 bc 72 fe 35 bd
       0.0010438649 -0.030613711 -0.030496137 -0.04443211
000240 16 8b 6b 3d d9 8a e1 bc e3 fc 3e bc ed 82 86 3d
       0.05750569 -0.027532028 -0.011656973 0.06567941
000250 d4 21 6b bc 85 ad a5 3c b5 ae 6e bc 8a 49 63 3b
       -0.014351327 0.020224342 -0.014568021 0.0034681284
000260 d9 4b e1 3c 41 fc 81 bc 6b 3b ad 3d 4f 6e 59 3d
       0.027501987 -0.015867354 0.08458599 0.053083714
000270 45 71 11 bd 39 f4 25 3d 6b bc b3 3d 1b dc e3 bc
       -0.035508413 0.040516112 0.08776172 -0.027814915
000280 a7 20 b1 3d ec c7 99 bc de 0c 3a 3d 66 42 a4 3d
       0.08648806 -0.018772088 0.045422427 0.08020477
000290 06 aa 19 bd 7d 5a 42 3d e0 2c 98 bd 3d 16 b3 bd
       -0.037515663 0.047449578 -0.07430434 -0.08744476
0002a0 7f d8 82 3d 78 fe 29 bc 05 d2 6b bd 44 9a 8f bb
       0.063889496 -0.0103756115 -0.057573337 -0.0043824036
0002b0 e4 31 9f bd 5e 79 95 3d 54 0e 9a bc 2d 0e 11 bd
       -0.07773188 0.072985396 -0.01880566 -0.03541391
0002c0 db 31 73 3d e7 02 1d 3d 27 a7 3f 3d 00 dc 58 bb
       0.059373718 0.038332846 0.04679027 -0.0033090115
0002d0 0f 43 a2 bd b7 8f aa 3d 5c bb 77 3c da 39 ea bc
       -0.07922947 0.08328193 0.015120354 -0.028592039
0002e0 53 0d 8c 3d 3b 81 33 bc 15 49 ad 3c 0f 34 01 bc
       0.06838479 -0.010956104 0.021153012 -0.007885947
0002f0 de 71 1d bd ae 38 ed 3c 75 47 1f bd d8 b6 1c 3d
       -0.03843867 0.028957691 -0.038886506 0.03826031
000300 7a 62 87 3d 8f fa cd bb 06 8d 39 3c d2 d0 3d 3d
       0.0661058 -0.0062859724 0.0113251265 0.046341725
000310 82 7e c9 3d 83 95 8a 3d ac f6 b0 3d ab ae 8e 3d
       0.098385826 0.06766798 0.08640799 0.06966909
000320 f4 3f a5 3d b2 72 3a bd af b7 1d 3d b6 ad cf 3c
       0.08068839 -0.04551954 0.038505252 0.025351387
000330 d4 01 29 3c 4f 19 26 bd c1 b8 a5 bd 08 75 53 bd
       0.010315377 -0.04055148 -0.0809188 -0.05162528
000340 0c 27 cd 3a f7 5b 97 3b 26 61 a2 bd 0c 44 f5 3b
       0.0015651896 0.0046191174 -0.07928686 0.0074849185
000350 9e a2 a9 3c d8 95 a4 3d 2c 9c b9 3d bd 46 97 3c
       0.020707425 0.08036393 0.090629905 0.018466348
000360 7c bf ad bd 77 7d 89 3c bc b0 86 3d 88 73 47 bd
       -0.08483788 0.01678346 0.06576678 -0.048694164
000370 a2 57 47 bd f5 a9 a4 bc 7c 5e a5 bd 2d 01 76 3c
       -0.048667558 -0.020100573 -0.08074662 0.015014929
000380 07 9a bb 3c 15 21 69 bd 0e 99 31 ba 6b 80 30 3d
       0.022900594 -0.056916315 -0.0006774821 0.04309122
000390 09 71 58 bd 5c fc 47 bd 67 2b 2d 3d a5 6a 76 bd
       -0.052842174 -0.048824653 0.04227772 -0.060160298
0003a0 4a c3 78 bc e6 cc 4d bd 07 81 66 3d de 31 61 bc
       -0.015183279 -0.050244235 0.056275394 -0.013744799
0003b0 dc 76 6e bc f5 c3 5d bd 92 61 98 3d f2 ea e9 3d
       -0.0145547055 -0.054141957 0.07440485 0.114217654
0003c0 63 f2 20 bd e2 82 47 bd 14 d9 40 3d b9 ca 37 bd
       -0.039293658 -0.048708804 0.04708202 -0.044871066
0003d0 4d 4c 9e 3d e9 3a b2 3b 97 93 b6 3d 6b e4 0e bb
       0.07729397 0.0054391515 0.08914869 -0.0021803628
0003e0 ca 69 ab bd 19 4c 87 bd 94 49 e6 3d 96 f0 d6 3c
       -0.08369787 -0.06606311 0.11244503 0.026237767
0003f0 b6 2d 5e 3d 20 00 d5 3d d2 9c 68 bd 0c 05 a9 3d
       0.054242812 0.104004145 -0.05679018 0.08252916

encoder.0.bias f4 [40]
000000 84 e0 8c 3a 4d 66 6d bb 86 5d db 39 83 31 0b 3b
       0.0010748063 -0.0036224306 0.00041840615 0.0021239228
000010 60 d3 3c 39 1c 63 bd 39 7d 0e 5f 3b d8 23 b0 bb
       0.0001800782 0.0003612273 0.0034035735 -0.0053753667
000020 36 55 82 bb 53 6c ef 39 6a a9 dc 3a e7 22 35 3a
       -0.003977443 0.0004566634 0.0016835157 0.0006909803
000030 52 98 d1 ba 8a be bf bb 98 62 df bb 77 7a c1 3a
       -0.001599083 -0.0058515714 -0.006817173 0.0014761229
000040 a3 41 1c 3b 18 28 e7 ba 31 4d bd 3a 06 65 16 3b
       0.0023842833 -0.001763585 0.001444256 0.0022948398
000050 75 b5 15 b9 c7 89 52 ba ac 95 05 bb ce 10 d3 3a
       -0.00014277345 -0.00080313947 -0.00203834 0.0016103031
000060 e3 5b 47 3a dd 5c 26 ba 72 57 2f ba 17 25 3d 3b
       0.000760494 -0.0006346235 -0.00066887506 0.0028861219
000070 d3 cc 36 bc 38 ab 98 ba 55 2b 5a bb d7 8c 97 3b
       -0.011157232 -0.0011647707 -0.0033289988 0.0046249437
000080 23 3f 0b 3b 74 bc a4 3a 82 6b 2e ba 53 95 ad ba
       0.002124735 0.001256837 -0.0006653593 -0.0013243355
000090 92 70 18 ba d7 9d 3e 39 d8 b9 8d 3b 1d 48 0b bb
       -0.0005815114 0.00018178612 0.004325133 -0.00212527

encoder.1.weight f4 [40]
000000 70 14 89 3f 77 89 85 3f f7 0f 81 3f c6 6b 82 3f
       1.0709362 1.0432576 1.0082997 1.018914
000010 a6 f1 88 3f bf de 82 3f b6 a1 82 3f 96 fc 89 3f
       1.0698745 1.0224227 1.02056 1.0780208
000020 f4 68 8f 3f 08 b6 84 3f e2 a4 84 3f 64 6d 85 3f
       1.1203904 1.0368052 1.0362818 1.0424008
000030 d6 7b 85 3f 4b a0 83 3f 14 16 8a 3f ea c4 85 3f
       1.0428417 1.0283293 1.0787988 1.0450718
000040 e7 d3 88 3f 20 31 81 3f 42 e0 85 3f 60 86 82 3f
       1.0689667 1.0093117 1.0459063 1.0197258
000050 86 82 8a 3f 89 98 85 3f f8 de 83 3f c2 ff 82 3f
       1.0821083 1.0437175 1.030242 1.0234301
000060 0b b1 80 3f 9a 0a 83 3f b5 68 84 3f fc b0 82 3f
       1.0054029 1.023761 1.0344454 1.0210261
000070 16 00 8c 3f 03 18 82 3f cc 98 86 3f f4 5a 86 3f
       1.0937526 1.0163578 1.051538 1.0496507
000080 8e 3a 86 3f 8c 70 86 3f b0 56 87 3f cc ef 82 3f
       1.048662 1.0503097 1.057333 1.022943
000090 a6 dc 81 3f c8 7a 85 3f 29 81 83 3f 2d 27 86 3f
       1.0145462 1.0428095 1.0273792 1.0480705

encoder.1.bias f4 [40]
000000 cd c8 71 3d 9f 26 c8 3c 7b 77 30 3c 57 d9 7b 3c
       0.05902939 0.024432478 0.010770674 0.015371642
000010 04 22 8f 3d c6 e6 78 3c fb cb db 3c 7f 8f e3 3c
       0.0698891 0.015191739 0.026830664 0.027778385
000020 82 01 88 3d 43 fd 06 3d ef 91 8c 3c cd af 0f 3d
       0.066409126 0.032956373 0.01715943 0.035079766
000030 06 73 15 3d a5 a1 27 3d a8 a0 1a 3d e6 13 5e 3d
       0.036486648 0.04092564 0.03775087 0.054218195
000040 6f be f7 3c 76 e1 76 3c 0e aa 45 3d 0b 36 92 3c
       0.030242173 0.0150684025 0.04825788 0.017848035
000050 74 e8 98 3d 3a e4 ca 3c b6 67 ff 3c c6 67 0a 3d
       0.07466212 0.02476703 0.031177383 0.033790372
000060 ea 5e 0d 3c 2b 1a bb 3c fa 20 2a 3d c9 56 42 3c
       0.008628586 0.022839626 0.041535355 0.0118615115
000070 1c 30 42 3d 6a b8 82 3c cb 42 79 3d 32 8b 04 3d
       0.047409162 0.015957076 0.060854714 0.03235931
000080 9d b7 27 3d 1b be 84 3c 6d c9 43 3d 37 27 08 3d
       0.04094659 0.01620393 0.047799516 0.033240523
000090 1f 47 a6 3b ba 09 54 3d 47 5c cf 3c 0f 8b 49 3d
       0.0050743963 0.05176709 0.025312556 0.049204882

encoder.1.running_mean f4 [40]
000000 27 9c f1 bd 08 f4 2b 3e 63 6b 65 3e 3f e2 74 be
       -0.11797362 0.1679231 0.22404246 -0.23914431
000010 fd 66 55 be f2 fa 85 bc d2 26 1a 3e 0e 40 70 bd
       -0.20840068 -0.016355012 0.15053871 -0.058654837
000020 d8 9d 9b 3c 8f 9c 4c be 94 ae f3 3c 29 14 09 be
       0.018996164 -0.19981597 0.029746331 -0.13386597
000030 e1 73 86 be 5a dc 0b 3b 15 4a 62 3c 2a f3 37 be
       -0.26260284 0.0021341057 0.013811608 -0.17963853
000040 ff 18 b8 bc bf cd 31 3d f0 4d 06 be d5 fc 09 3e
       -0.022472857 0.043409105 -0.13115668 0.13475354
000050 20 c0 9c bd a4 cb 2a 3e 12 69 ed 3d be d2 5f be
       -0.076538324 0.16679245 0.11592306 -0.21857736
000060 e8 c4 98 3e 2b 3b 8c bd b4 e2 c9 3c ed 3d 16 be
       0.29837728 -0.06847223 0.024644233 -0.1467206
000070 a2 c1 d9 bc 66 1d c2 3d 7a 6d 27 be e0 22 8c 3d
       -0.02658159 0.094782636 -0.16350356 0.068425894
000080 85 54 0e be 71 f8 c0 3c b6 03 11 be f0 1f 0f be
       -0.13899429 0.023555966 -0.14161572 -0.13977027
000090 32 e1 0c 3c 56 d5 8a be 75 88 a8 bd ac 0f a3 bb
       0.008598613 -0.27115887 -0.08229152 -0.0049762335

encoder.1.running_var f4 [40]
000000 48 55 74 3c 46 2a 97 3c 99 b4 b7 3c 3d 43 ca 3c
       0.014912911 0.018452775 0.022424983 0.024690265
000010 06 7b ef 3c 05 37 d3 3b 9d 03 5c 3c 6c 6b 47 3c
       0.029233467 0.006445768 0.013428596 0.012171607
000020 b3 0a 59 3c 52 77 a0 3c 0b 9a 41 3c e6 00 33 3c
       0.01324718 0.019588146 0.011816512 0.010925507
000030 0c 35 52 3d 4f 9b e9 3b e9 31 83 3c ac 8d ba 3c
       0.05132012 0.00712911 0.01601501 0.022772633
000040 91 fa 5b 3c aa 2f 0d 3c fe a1 88 3c 0e cd 22 3c
       0.013426439 0.008617321 0.016678806 0.009936584
000050 91 ec 61 3c b3 02 34 3c 1e fe a9 3c 4d 5d 1a 3d
       0.013789312 0.010986972 0.020751055 0.037686635
000060 fa 7b 29 3d f1 ce 4c 3c bf ad 9a 3c 31 e8 3e 3c
       0.041378 0.012500511 0.018881677 0.011652038
000070 cf c7 8e 3c d1 1a 84 3c 52 8c a3 3c c0 6a f1 3b
       0.01742926 0.016126068 0.01996437 0.007367462
000080 22 7a 1e 3c 50 c8 53 3c 3b 63 dd 3c a9 ad 9b 3c
       0.009672673 0.012926176 0.027024856 0.019003706
000090 5a f9 f0 3b 15 18 46 3d 72 84 23 3c 3c 1b cb 3c
       0.007353944 0.04836281 0.009980308 0.02479326

encoder.3.weight f4 [40, 40, 4, 4]
000000 fa 38 d7 bc 87 25 c1 bd 93 9c 0e bd f1 bb 2e bd
       -0.026272286 -0.09430986 -0.03481729 -0.042659704
000010 4e 24 e3 bc 5d 41 4d bc e6 5c 62 3d 55 24 3f bc
       -0.027727272 -0.012527791 0.055264376 -0.011666377
000020 5c 59 87 3d dc 87 35 3c 43 cc 23 bd d6 82 80 ba
       0.06608841 0.011079755 -0.03998972 -0.0009804617
000030 a8 73 11 3c ca 79 54 3d c2 a9 10 bc 0c 11 a8 bb
       0.008877672 0.05187396 -0.008829536 -0.0051289853
000040 c8 40 b5 3d 6d be 22 3d 17 24 87 bc 60 45 c0 39
       0.08850247 0.039732385 -0.016496701 0.00036672782
000050 e4 cb 76 3d 64 7d 5c 3d 5b 7d 18 3d 0c 6d 9e bc
       0.06025304 0.05383052 0.037228923 -0.019339107
000060 e9 74 8d 3d 6c 21 8f bd 05 35 8d 3c fd 5d d4 3b
       0.069070645 -0.069887966 0.017237196 0.006480931
000070 81 77 02 3d 63 09 33 bc 5a 64 0c 3c 44 81 2f 3d
       0.03185225 -0.010927531 0.008568848 0.042847887
000080 ee 0c 1f bd 7d e7 b9 3b 8e a7 4a 3d fe df 6c bc
       -0.03883069 0.0056733475 0.0494762 -0.014457701
000090 35 52 6e bb 85 5f 89 3c be 7b 4a bd 18 22 c6 3c
       -0.0036364917 0.01676918 -0.049434416 0.024186179
0000a0 3c e4 26 bc 87 6a 83 3d 3b 3c d2 3b 23 90 1f 3c
       -0.010186251 0.06416803 0.0064158714 0.009738955
0000b0 ca d5 23 3d 01 c1 d5 3c 87 c5 91 bd 27 02 6d 3d
       0.039998807 0.026093008 -0.071177535 0.05786338
0000c0 54 77 a4 bc 44 b6 35 bc 3c 8f f4 3c 28 b1 2d 3c
       -0.020076431 -0.011090819 0.029853456 0.010601319
0000d0 12 a4 81 bd cd cc 47 3c df 87 39 3d 54 43 78 3d
       -0.06330122 0.012194824 0.045295592 0.060611084
0000e0 75 e9 1d bd 25 7d 86 3d cf 5d 0b 3d 80 e7 b7 bc
       -0.03855272 0.06566838 0.03402501 -0.022449255
0000f0 02 c5 6f 3c 63 d7 2f bb 3e 21 b9 3c f6 ca e1 bc
       0.014634373 -0.0026831261 0.022598859 -0.0275626
000100 2e 56 46 bd f0 5d ad bc a2 c9 03 bd 02 c5 a4 3c
       -0.04842203 -0.021162957 -0.032174714 0.020113472
000110 22 e9 3d bc 32 0d 3c bd 75 72 4e 3c 31 6c 68 3d
       -0.011591228 -0.04591102 0.012600531 0.056743804
000120 78 3e d3 bc 31 20 ee 3c ee 4f 7d bd 00 72 22 3c
       -0.025786623 0.029068084 -0.061843805 0.009914875
000130 0b b2 1f 3d 4a bf 4c 3d 56 89 d4 3c 87 00 8f 3b
       0.038988154 0.049987115 0.025944393 0.0043640765
000140 1a c1 58 bd 69 50 24 3d 48 93 30 bd 57 f0 74 bd
       -0.05291853 0.040115748 -0.04310921 -0.05979952
000150 61 93 12 3d dd 51 80 3c 43 7d f3 3c 8a 30 87 bd
       0.035785083 0.015664035 0.029722815 -0.06601055
000160 18 4a 09 3d 06 d1 40 3d 84 c3 4b bd 1b 1c 1b 3d
       0.033517927 0.04707434 -0.049747005 0.0378686
000170 9a 97 18 3d 25 ac 2a 3d d2 24 c1 bc be 1e 24 bd
       0.037253954 0.041668076 -0.023577128 -0.04006838
000180 1b 82 6f 3d 8a e8 7d 3d 83 67 7d 3d 74 98 83 3c
       0.058473688 0.061989345 0.061866295 0.016063906
000190 09 dd 82 bc c0 d1 8a bd 4e 99 75 3d 13 cd 1e 3c
       -0.015974538 -0.06778288 0.059960656 0.009692448
0001a0 8f 5d 1a 3d 5a 39 44 3d 4f 96 3a 3d 16 ed 24 bd
       0.03768688 0.047906257 0.0455535 -0.040265165
0001b0 aa 2b a6 3c c9 3f 25 3c 80 61 3a 3d cf d3 66 bd
       0.020284493 0.010086008 0.04550314 -0.05635434
0001c0 9d a4 04 bd bb 6a 07 bd da ae 0e bc ac de 25 bd
       -0.03238355 -0.03306077 -0.00870868 -0.04049556
0001d0 44 89 c1 3b 5d 99 fc 3c 76 df 1f bd 04 a7 b3 b8
       0.005906256 0.030834848 -0.03903147 -8.566494e-05
0001e0 21 84 81 3d d4 07 24 bd 39 5d e6 ba ab ae 82 3c
       0.0632403 -0.040046528 -0.001757539 0.015952429
0001f0 95 26 13 3d bb bb 85 3c 22 c2 dd 3b 75 fe 46 bc
       0.035925467 0.016324868 0.006767527 -0.012145628
000200 4c 6b da 3c eb 4b 84 bd 6b 66 57 3d b0 e1 f7 3b
       0.026662491 -0.06459793 0.052587908 0.007564746
000210 ce 76 64 bd f6 da 62 bd 59 63 64 3d e5 5b 69 3d
       -0.055777363 -0.0553846 0.055758808 0.056972403
000220 ce 71 26 3d 66 4a 47 3d 8b cd 10 3c b3 08 1f 3d
       0.040635876 0.048654936 0.008838068 0.038826656
000230 cd 3f 94 bd bd f5 d4 3c 5d 4f 82 3c 99 c0 1c 3d
       -0.072387315 0.025996083 0.015906984 0.038269613
000240 48 a4 9e ba 32 f3 49 bd 0b c4 24 3d 9d 89 1e bd
       -0.0012103403 -0.049304195 0.040226024 -0.038705457
000250 c0 13 e4 bc da 10 0c 3d 2b be a0 3c 87 4e 4c 3a
       -0.027841449 0.03419576 0.01962193 0.0007793684
000260 51 36 51 3d 9e db 41 bd 0c e3 97 bc 41 a9 0c 3c
       0.05107719 -0.047328584 -0.018540882 0.008585275
000270 8d 80 0a 3b 47 b7 09 bc 9b 29 29 3d db 2d c2 bc
       0.002113375 -0.008405513 0.041299444 -0.023703506
000280 15 19 56 3d 3f 46 4f bb e6 8c 6f bd 07 45 03 bd
       0.052270014 -0.0031627563 -0.05848398 -0.03204825
000290 f3 41 78 bc 17 76 78 bd b6 ef 0a bd 8d 8a 57 bd
       -0.015152442 -0.060659494 -0.033920012 -0.052622367
0002a0 e0 14 40 bd e6 0c c4 3c 0e d8 1a bd 43 89 76 3d
       -0.046894908 0.023931932 -0.037803702 0.060189497
0002b0 e7 92 4a 3d 7e c3 60 bd e4 7b 94 bb d5 d2 9a bd
       0.049456503 -0.054873936 -0.0045313705 -0.07559744
0002c0 bd c6 0d 3d 05 81 c9 bb 46 b9 25 bd 61 ae d6 bc
       0.03461336 -0.0061494135 -0.040459894 -0.026206197
0002d0 2d a8 41 3d f0 8a 5d 3c 42 e7 bf bc 52 cf 4d bc
       0.047279526 0.013521895 -0.023425702 -0.012561636
0002e0 85 75 87 3c 56 27 8b bc 94 7b 85 3c b8 eb 2d bd
       0.01653553 -0.01698653 0.016294278 -0.042461127
0002f0 9a ad 74 3c 94 fa 9d bc d5 f3 9f 3c 79 0c da 3c
       0.014933968 -0.019284524 0.019525448 0.026617276
000300 2b 12 a7 bd c3 8c ed bb 5c c0 d8 3c cc 52 69 bd
       -0.08157762 -0.007249446 0.026458912 -0.056963727
000310 82 c5 5a 3d 0c 4a 7e 3d 3f df 24 bd 63 8a 89 3d
       0.053411014 0.062082335 -0.040251967 0.06715848
000320 65 11 09 bd b6 6a 4d 3c 68 6e 84 3d 69 c4 29 bd
       -0.033463854 0.012537649 0.06466371 -0.041447077
000330 1c 54 de 3c fe 82 28 bd db db 53 3c e0 3c 08 3d
       0.027139716 -0.04114055 0.012930836 0.03326118
000340 76 63 a7 3d f8 a5 02 3d 41 f1 00 3c 96 75 f8 3c
       0.081732675 0.03189656 0.007870019 0.030329507
000350 ad 77 65 bc d9 48 4c 3d c3 eb 5b bc 30 2b a1 bb
       -0.014005584 0.04987416 -0.013422909 -0.0049184784
000360 4e e3 3e bd 99 aa 3b 3d 85 19 c3 3b ac ab 3f 3d
       -0.046603493 0.04581699 0.00595397 0.04679458
000370 93 3c 3f bd 87 9f 93 3c a6 99 78 bd bb f1 85 bb
       -0.046688627 0.018020405 -0.060693406 -0.0040876544
000380 fc 24 ad 3c 87 de 35 bc 9f 8c 3d 3b 43 b1 27 3d
       0.0211358 -0.011100418 0.0028922928 0.040940534
000390 1e 92 31 bd 21 00 1b 3d a6 cd a5 3d 99 b0 8d bc
       -0.04335224 0.03784192 0.08095865 -0.017296122
0003a0 a2 4c ba bc 4e bb 40 3d 04 fd 0c 3c 29 a0 2e bd
       -0.02274162 0.047053628 0.0086052455 -0.04263321
0003b0 dd 15 75 3d 0a a0 68 3d b5 f0 9b 3c 34 e6 a2 3d
       0.059835304 0.05679325 0.019035676 0.07954064
0003c0 b6 d3 66 3d 67 d6 d0 3c ff 87 ea bb df 13 72 3d
       0.056354247 0.02549286 -0.0071573253 0.05910098
0003d0 73 71 82 3c c1 ff bd 3c 96 db a0 3d 78 71 ac bc
       0.015923237 0.023193242 0.07854383 -0.0210502
0003e0 54 fa 57 bd c0 8e 38 3c 52 9d 4e bd c3 31 bf 3b
       -0.052728966 0.011264503 -0.050443 0.0058347895
0003f0 b0 a2 b9 3d e2 83 e1 bc 8b 37 54 bd 3b 84 f2 bc
       0.09064233 -0.027528707 -0.051810782 -0.029604068

encoder.3.bias f4 [40]
000000 98 38 46 3c a9 0d 42 3c fd ad 1c 3c 0f 57 24 3c
       0.012098454 0.011844077 0.009562966 0.010030522
000010 ae 59 93 3b 2b fc 68 3c b7 a6 f9 3b 80 65 f4 3b
       0.0044967746 0.014220278 0.007618751 0.007458389
000020 30 ea 38 3c 4c 4c 4c 3c 0a 24 17 3a 28 7d 0c 3c
       0.011286303 0.0124693625 0.0005765563 0.008574761
000030 bd 28 6e 3b 87 40 86 3b 4f c5 1a 3c 0e 90 0b 3c
       0.00363402 0.0040970477 0.009446456 0.008518232
000040 03 25 c6 3a 80 7c 3b 3c dc 7f 9b 3b 92 5f 7e 3c
       0.0015117232 0.011443257 0.0047454666 0.015525715
000050 dd 26 e3 3b 3d ed 9d 3b f0 e1 33 3c e0 a5 61 ba
       0.006932123 0.004819541 0.010979161 -0.0008607786
000060 58 7a 6e bb 07 11 51 3c 71 f0 d9 3b 14 c6 a8 3b
       -0.003638884 0.012760407 0.0066509773 0.005150566
000070 35 d1 96 3a c2 75 fe 3b 8c 96 3d 3c e8 61 07 3c
       0.001150644 0.0077655027 0.011571538 0.008263089
000080 c6 86 89 3c 3b 94 97 3c 7c df d5 3a f6 fe cd 39
       0.016787898 0.018503299 0.0016317214 0.00039290608
000090 0e b8 35 3c 2f 9b 36 3b 59 c0 ce 3b 14 a7 77 bb
       0.011091245 0.0027863493 0.0063095507 -0.0037788795

encoder.4.block.1.weight f4 [40, 40, 3, 3]
000000 40 b9 a8 3d 01 c5 95 bd e7 70 8c bd fe 1e 85 bd
       0.08238459 -0.07312966 -0.06857472 -0.06500052
000010 1c 5f 54 3d e3 15 94 3d 54 43 83 bc 60 3c 28 3d
       0.051848516 0.07230737 -0.016023315 0.041073203
000020 9a 64 02 bd c5 8c 8b bd cc 34 a0 bd ff 5f 8f 3c
       -0.031834222 -0.06813959 -0.0782257 0.01750183
000030 a8 32 26 3c 1e 7c 6e bd 8b d1 a3 3d 19 5e e1 3c
       0.010143913 -0.058223836 0.079989515 0.02751069
000040 dc 75 dd bc c7 b9 ea bc 70 58 4f 3c f1 0b f0 3c
       -0.027033739 -0.028653039 0.0126553625 0.02930257
000050 b8 03 28 bd d1 93 08 3c 29 23 ac b9 35 fd 2a 3d
       -0.04101917 0.008336023 -0.00032832593 0.041745383
000060 86 a1 2b 39 8b 01 bf bb 19 15 0d bd 6f 33 cd 3d
       0.00016368003 -0.0058290414 -0.03444395 0.10019576
000070 fe 14 66 3d 8e 5f 4b bd fe 0d 7b bd 78 9d ad bc
       0.056172363 -0.049651675 -0.06129264 -0.021193251
000080 7d f6 49 3d 18 9a 12 bd 32 66 d5 bc f9 ee 41 bd
       0.049307335 -0.035791487 -0.026049707 -0.047347043
000090 ea 39 09 bc 2e 21 03 bd 7a bc ff 3c d5 a3 ab bb
       -0.008375624 -0.032014064 0.031217802 -0.005238036
0000a0 d3 6d 23 3d 11 5b 96 bd e8 37 1f 3c b8 b6 21 3d
       0.03989966 -0.07341588 0.009717919 0.039480895
0000b0 3e 30 a3 3d f2 28 35 3c c9 7a cc bc 1a e7 88 3c
       0.07968186 0.011057125 -0.024960892 0.01671176
0000c0 9f 73 c5 bc a4 a5 0d bd 94 bf 87 3d fa 6d da 3b
       -0.024102984 -0.034581795 0.066283375 0.0066659423
0000d0 f2 81 91 3d 56 78 63 bd 57 22 cb 3d 05 06 93 bd
       0.07104863 -0.055534683 0.09918659 -0.071788825
0000e0 e7 d3 57 3d b1 95 86 3d 5d f4 a9 bb 3d 08 34 bb
       0.05269232 0.0657152 -0.005186601 -0.002747073
0000f0 2d b7 8e 3c 2f 4c 6f bd 91 d3 b5 3c 98 b6 99 3a
       0.01742133 -0.058422264 0.02219561 0.0011727391
000100 01 3f 08 bd 9d c9 4e 3c 55 dd 44 bd 61 88 63 3d
       -0.03326321 0.012621311 -0.04806264 0.055549983
000110 6f cc 80 bd b7 39 93 bd 32 58 78 3d 5a d9 49 3c
       -0.062889926 -0.071887426 0.060630985 0.012319887
000120 5f db 2b 3c 77 6f 4a 3d 8e 8c 7b 3c 3f e3 2f 3b
       0.010489314 0.049422707 0.015353335 0.002683833
000130 66 94 47 3d 92 02 9d bc 2e 00 8f 3d c1 b9 e3 3c
       0.04872551 -0.019166265 0.06982456 0.027798535
000140 fd 1f 86 3c 2e 58 75 bd 70 69 b6 3c 45 4b a5 3d
       0.016372675 -0.059898548 0.022267073 0.08070997
000150 b9 15 ac 3d c6 76 b8 3c 8d 5d 22 3a 71 4a 32 bd
       0.08402581 0.022517573 0.000619375 -0.043528024
000160 ee 88 55 3d 5b ef 80 3d 0a a7 a0 bd aa cb ce bc
       0.05213254 0.062956534 -0.0784436 -0.025243599
000170 82 29 88 3c e4 4d 86 3c 0a cc 07 bd 1d 07 e6 3c
       0.016621355 0.016394563 -0.03315357 0.028079564
000180 08 1f 87 3d d1 ec 4a bd e9 28 3d bd ef 85 c4 bc
       0.065977156 -0.049542252 -0.046181593 -0.023989646
000190 c4 d0 b7 bd 65 84 80 3d 59 f2 b1 bd 28 25 ef 3c
       -0.08975366 0.06275252 -0.08688802 0.029192522
0001a0 11 32 2c bd f0 41 06 3d 4d c8 86 3d ef 8d 43 bd
       -0.042039935 0.032777727 0.06581173 -0.04774278
0001b0 a0 18 0a 3d 89 00 96 bc a3 08 ff bc 17 c3 98 3d
       0.03371489 -0.018310802 -0.031132048 0.074590854
0001c0 62 fa 4c bd f4 3c ea 3c ff c0 4a 3d 5b c6 38 3d
       -0.05004347 0.028593518 0.04950046 0.04511104
0001d0 33 c6 7c 3d 3f 07 df bc 00 8c 0d 3d 3a df c3 3d
       0.061712455 -0.027225135 0.034557343 0.095640615
0001e0 8a 61 30 3c bc 44 8a bd d9 cd f6 3c a4 5b a6 3d
       0.010765443 -0.06751391 0.030127453 0.08122948
0001f0 6c 36 96 3d 71 ee 08 bc 49 82 27 3d dd 14 c0 bc
       0.07334599 -0.00835763 0.040895734 -0.023447448
000200 be 7b 11 bd 4f a7 2d 3d 74 56 53 3c 91 7b 88 bd
       -0.0355184 0.042395886 0.01289903 -0.066641934
000210 73 51 52 3b f2 57 51 3c a8 b8 a2 3d 81 24 9c bd
       0.0032092005 0.012777315 0.07945377 -0.0762415
000220 d1 3a 40 bd d6 a5 82 bd 66 15 ad bd 46 6e 85 bd
       -0.04693109 -0.06379287 -0.08451347 -0.065151736
000230 20 b6 fb 3c 6f 5f 8c bd 78 4a ae bd fd 46 ac bc
       0.030726492 -0.0685414 -0.085102975 -0.021029944
000240 9d 61 2a bd 46 2f 9c 3d b3 7b 33 bd ec 13 8d bd
       -0.041596998 0.07626204 -0.04381914 -0.068885654
000250 7f 78 d2 3d 99 4d 96 bd a9 8e c3 bb 8b fd 62 bc
       0.10276889 -0.07339019 -0.005967934 -0.013854395
000260 14 be d8 bc ea 7a a8 bb ec 5d 52 3d 8f 02 09 bd
       -0.026457824 -0.0051416056 0.051359102 -0.033449706
000270 f2 ec 90 3d 8b ae a4 3d b2 c0 ba 3d 31 2e 47 bd
       0.07076444 0.08041104 0.09118785 -0.048628036
000280 27 22 93 3d 70 11 9e bd 6b a3 1e 3e b3 35 61 bc
       0.071842484 -0.0771817 0.15492027 -0.013745713
000290 51 5d 3f bd 6e fc 2e 3b 2d d0 1c 3c 20 01 c6 3d
       -0.046719853 0.0026700753 0.009571117 0.09668183
0002a0 57 23 ab 3d 7d 65 66 3b c6 65 b5 3d 33 0c 7a 3d
       0.0835635 0.0035155707 0.08857302 0.06104679
0002b0 77 73 cd bd 2f e3 46 bd 71 c1 3a bd 66 40 82 bd
       -0.10031789 -0.048556503 -0.045594636 -0.06359939
0002c0 b4 d6 d4 bb a4 a7 6c bb 0f 75 2d bd 0c 78 01 bd
       -0.006495321 -0.0036110664 -0.042347964 -0.031608626
0002d0 b4 ba b7 3d db d3 84 3c 72 e1 b5 3d f0 91 97 bd
       0.08971158 0.016214302 0.08880891 -0.07400882
0002e0 c6 9e 1d 3d 29 b4 86 bc 4d 26 cd 3b 92 b7 83 3d
       0.038481496 -0.016443329 0.0062606693 0.06431498
0002f0 6c 05 77 bd 47 fd 85 3d 50 2d 55 3d 07 09 cd bc
       -0.060307905 0.065424494 0.052045166 -0.025028719
000300 7d 6a d7 bc e1 53 a7 bc ab 14 8c bd 59 98 a0 bd
       -0.026295895 -0.020425739 -0.068398796 -0.07841558
000310 e2 d0 9d bd a2 fd 22 3d a6 9d 46 3d 93 b9 54 bd
       -0.07705857 0.039792664 0.04849019 -0.05193479
000320 63 10 5a 3d 05 70 4f 3d 73 f8 8b 3d a8 38 01 bd
       0.053238284 0.05064394 0.06834497 -0.031548172
000330 6c 36 20 bd 5f e2 c1 3c 53 9c 75 bc 61 e6 a0 bb
       -0.0391144 0.023667512 -0.014990884 -0.004910276
000340 2f 80 2b 3d 3b 24 74 bc 6d 64 86 3d a8 15 ed bc
       0.041870292 -0.014901216 0.065621234 -0.02894099
000350 61 af b3 3d db a5 7b 3d 6a 56 44 3b 84 e0 aa bc
       0.08773685 0.06143747 0.0029958733 -0.02085901
000360 d4 ef 43 3d 55 16 00 bd 79 56 85 3d 4c 02 86 bd
       0.04783614 -0.031271297 0.06510634 -0.06543407
000370 5f 21 eb ba 55 87 a6 3d 55 71 0c bc a5 eb 2d bd
       -0.0017939023 0.08131281 -0.008571942 -0.042461056
000380 67 75 55 bd 36 5b 41 bd 32 8b c7 3c 06 84 72 bb
       -0.052113917 -0.047206126 0.024358366 -0.0037004962
000390 89 a5 97 bd 1b e4 6b 3c 98 97 35 3c d5 6a 61 bd
       -0.0740462 0.014397646 0.011083506 -0.055033524
0003a0 52 47 9f bd 2a e8 a9 3d 92 e3 97 3c 8d a8 79 bd
       -0.07777275 0.08296235 0.018541131 -0.06095176
0003b0 4c 95 91 3b e6 07 81 3d da 6e 60 bc 36 a5 64 3d
       0.0044428464 0.06300335 -0.013698304 0.05582162
0003c0 f2 00 47 bd 45 65 81 bc 31 f5 b1 3c e5 56 0b 3d
       -0.048584886 -0.01579536 0.021723362 0.034018416
0003d0 56 cc e6 3c e7 f0 29 bc 68 0a 63 3d 4f e1 f0 bc
       0.028173607 -0.010372377 0.055429846 -0.02940431
0003e0 a2 ed 5b bc 35 3f 85 bb ad ef 89 bd 60 a3 66 bb
       -0.013423355 -0.0040663728 -0.06735168 -0.0035192594
0003f0 6d 44 67 bc 0e b4 90 bc 79 2c aa bd 23 81 8e bd
       -0.014115435 -0.017663982 -0.08309264 -0.069582246

encoder.4.block.1.bias f4 [40]
000000 9c 09 06 3b 00 e2 8d ba 89 9a c0 39 0d 5b f7 38
       0.0020452505 -0.00108248 0.0003673623 0.00011794837
000010 60 f9 d5 3a fb 8d 03 3a 87 c5 2f bb 02 5f dc ba
       0.001632493 0.000501841 -0.0026820616 -0.0016812983
000020 d6 36 e2 3a 59 95 52 3b a9 52 82 39 6f 1d b4 39
       0.0017258774 0.0032132475 0.0002485712 0.00034354205
000030 3c 5e ba ba 7b 46 ad ba 57 c2 26 3b 05 13 13 ba
       -0.0014218758 -0.0013219857 0.0025445425 -0.0005610439
000040 8e 87 b0 ba 14 2e fe 39 0b df 62 39 e4 59 4c 39
       -0.0013468133 0.00048480986 0.0002163613 0.00019488443
000050 2f e9 60 ba 66 8b f1 38 30 31 2f 39 e8 68 45 b8
       -0.0008579669 0.000115177405 0.00016707624 -4.706616e-05
000060 e1 43 2e 3a e3 b0 22 bb d3 c8 b7 b8 7d 62 ac 3a
       0.0006647688 -0.002482467 -8.7635264e-05 0.001315191
000070 ec dd 15 3a ac 71 fd ba 0b 48 03 bb 7a 72 08 3b
       0.0005716968 -0.0019336245 -0.0020031955 0.0020820186
000080 53 77 bc b8 36 50 dd 39 48 fa b2 ba ce 2b fb ba
       -8.9867644e-05 0.00042212167 -0.0013654912 -0.0019162835
000090 2e ae 93 3a 80 eb 75 39 97 00 32 3a 76 62 5b 38
       0.001126712 0.00023452751 0.0006790249 5.2305368e-05

encoder.4.block.2.weight f4 [40]
000000 21 c1 7b 3f f5 22 7f 3f ef c5 7d 3f 08 fe 81 3f
       0.98341566 0.99662715 0.9913015 1.0155649
000010 13 92 7b 3f e8 19 7e 3f 46 00 81 3f 41 35 7a 3f
       0.98269767 0.9925828 1.0078208 0.9773751
000020 ac 00 7e 3f c4 2d 82 3f fd b7 81 3f 9c a4 80 3f
       0.99219775 1.0170217 1.0134274 1.0050235
000030 4e 2f 84 3f 11 a4 82 3f 96 21 7d 3f a4 53 80 3f
       1.0326936 1.0206319 0.98879373 1.0025525
000040 ff e5 7e 3f 65 f0 80 3f 6d 03 82 3f aa 00 82 3f
       0.99569696 1.0073363 1.0157295 1.0156453
000050 d5 15 81 3f c0 7c 79 3f 30 2a 81 3f ed 6d 7c 3f
       1.0084788 0.9745598 1.0091 0.98605233
000060 8f 2e 7b 3f 24 9a 8f 3f c0 b8 7d 3f 1f 29 7d 3f
       0.9811792 1.1218915 0.9911003 0.9889087
000070 ce b9 7c 3f 61 bd 7e 3f c1 d7 80 3f aa a9 79 3f
       0.98721015 0.9950772 1.0065843 0.9752451
000080 23 c4 7b 3f f7 92 7f 3f d5 6e 7f 3f 00 cd 79 3f
       0.98346156 0.99833626 0.9977849 0.9757843
000090 b0 bc 78 3f c1 85 80 3f 96 ca 82 3f 49 20 7c 3f
       0.97162914 1.0040818 1.0218074 0.98486763

encoder.4.block.2.bias f4 [40]
000000 80 de 25 3d 61 5c ba bc f5 b6 c4 3a 67 27 ea 3c
       0.040495396 -0.022749128 0.0015008139 0.028583242
000010 29 f2 94 bc e1 b2 50 3c e1 fa ae 3c 63 9c 81 3a
       -0.018181877 0.012737961 0.021359863 0.0009888526
000020 80 54 23 3b b8 d7 27 3d 0a 7c 16 3d a2 31 97 3b
       0.0024922192 0.04097721 0.036739387 0.004614071
000030 25 36 4f 3d e3 d5 40 3c c6 86 84 3c 8b c2 f8 3c
       0.050588746 0.011769745 0.016177546 0.030366203
000040 93 87 10 3c c6 81 2e 3c 18 d9 06 3d 72 34 5d 3c
       0.008821386 0.010651058 0.03292188 0.0135012735
000050 b7 b8 66 3b 91 2d ad 3b ee 1b 8f 3c 3f d6 8d 3a
       0.0035205313 0.005284973 0.017469373 0.0010821297
000060 d5 56 f4 ba 9f 83 7b 3d 58 90 ee 3c 13 1d 80 3b
       -0.0018641601 0.06140482 0.029121563 0.003909716
000070 26 91 6c 3c 29 56 7e bb d8 f7 42 3c 3a d3 52 bb
       0.014438903 -0.003880868 0.011899911 -0.0032169358
000080 ca 0e b0 3a d3 b1 db 3b 5e 36 2f 3c 4c f8 3b 3c
       0.0013432142 0.006704548 0.0106941145 0.011472773
000090 db 65 76 bc 62 1d 95 3c d8 d8 73 3d 1e f7 27 3c
       -0.015038933 0.018202487 0.05953297 0.010251788

encoder.4.block.2.running_mean f4 [40]
000000 c8 45 0a 40 59 35 a7 bf 47 28 b8 bf 44 5d e3 3f
       2.160509 -1.3063155 -1.4387292 1.7762837
000010 89 c1 f0 3c 2a 54 82 3e 47 09 05 c0 0a c3 f9 3e
       0.02938916 0.25454837 -2.0786912 0.48781615
000020 cb b0 05 bf 88 90 12 3f 3c 1a 16 bd c0 42 d6 be
       -0.5222289 0.5725179 -0.036646113 -0.418478
000030 0a ca cb 3f a1 fa ad 3f 31 b0 d6 be 54 50 86 3f
       1.5921032 1.3592111 -0.41931298 1.0493264
000040 40 6d e0 3f e2 d4 1a bf 1c 4f 2c 40 e2 0b e2 be
       1.753334 -0.60481083 2.6923285 -0.4414969
000050 6c e3 1b bf 7f 0a b7 bf 65 f9 2a 3f 16 22 be bd
       -0.60893893 -1.4300078 0.66786796 -0.09283845
000060 fb 89 0e bf b7 46 df 3f 6f 0d 18 bf a9 73 24 40
       -0.5567929 1.7443455 -0.593955 2.5695593
000070 61 aa a0 3f 0e 64 41 bf b1 6c aa bf 38 18 1c bf
       1.2551996 -0.75543296 -1.331442 -0.60974455
000080 99 1e 6a bf c0 7d 97 be d5 8d f6 be 0a 02 b3 3f
       -0.9145294 -0.29588127 -0.48155084 1.3984997
000090 b8 a6 7b bf 4c 63 af 3f aa d4 06 40 69 1a da 3f
       -0.9830127 1.3702178 2.10673 1.703931

encoder.4.block.2.running_var f4 [40]
000000 00 96 6a 40 e3 89 0d 40 e7 99 17 40 59 cc de 3f
       3.6654053 2.211541 2.3687685 1.7406112
000010 12 83 d1 3f 9c 34 b5 3f b2 d9 59 40 70 98 c2 3f
       1.6368124 1.415668 3.403912 1.520277
000020 71 e9 6e 40 2e 6c eb 3f 66 16 e7 3f 75 21 17 40
       3.7329981 1.8392389 1.805371 2.361417
000030 88 7c a7 3f e2 42 da 3f 6e 51 c6 3f 28 59 b7 3f
       1.3084879 1.7051661 1.54936 1.4324083
000040 c4 9a db 3f d6 7e 13 40 ce 96 0e 40 06 0a 66 3f
       1.7156606 2.3046165 2.2279544 0.89859045
000050 5d 7e 27 40 17 37 62 40 11 5d e6 3f 8c a0 a1 3f
       2.6170876 3.5346124 1.7997152 1.262712
000060 89 ed 5b 40 86 12 49 3f 77 7d 0b 40 c0 52 9a 40
       3.436373 0.7854389 2.1795328 4.8226013
000070 a3 3f bc 40 b2 dc 17 40 1b 59 51 40 99 87 1b 40
       5.882768 2.3728452 3.2710636 2.4301512
000080 52 a1 4a 40 76 12 fc 3f d7 00 53 3f c7 ce b3 3f
       3.1660962 1.9693134 0.82423156 1.4047478
000090 43 78 45 40 c7 f2 74 40 f6 8a 19 40 60 9d 04 40
       3.0854652 3.827318 2.3991065 2.0721054

encoder.4.block.4.weight f4 [40, 40, 1, 1]
000000 f2 72 88 bd bc a3 54 be bf eb 71 3d 2b 53 3d 3d
       -0.06662549 -0.20765585 0.059062716 0.046221893
000010 97 43 25 3e a1 b3 a9 3d bb d7 5b 3d 2f 5e 0d be
       0.16139065 0.082862146 0.053672533 -0.1380546
000020 0e 8a 63 3e 25 ea 9a bd b1 bc ff 3d f6 7e d1 3d
       0.22220632 -0.07564191 0.12487162 0.10229294
000030 1e 31 78 3e 48 b4 23 3e ef ef 96 3e 55 0c a3 3b
       0.24237487 0.1598674 0.2947993 0.0049758353
000040 73 f7 88 3d 0c 16 23 be 40 0e 43 3d 69 57 12 3d
       0.06687822 -0.15926379 0.04762101 0.035727892
000050 e9 19 05 3e dd ac 1a 3d 12 e8 4b bc 44 b1 80 be
       0.12998165 0.03776251 -0.012445467 -0.25135243
000060 e8 4b 28 3d a3 b9 2d be 47 59 0e 3e 6c 2d 81 3e
       0.041088015 -0.16965346 0.13901244 0.25229967
000070 f7 da 06 be 91 31 54 bc d3 d3 3c bd ea f1 50 3e
       -0.13169466 -0.012951271 -0.04610045 0.20404783
000080 69 73 82 3e 3a 3b 0a be 7b 82 79 3e 16 12 d3 bd
       0.25478676 -0.13499156 0.2436618 -0.10306184
000090 af 8c 99 3e 6b 26 24 3e 32 4f a7 bd 43 44 dd bd
       0.29990146 0.1603028 -0.08169402 -0.108040355
0000a0 32 4c 50 be 99 e7 c5 3d 20 5d a6 bd 6e 66 33 3c
       -0.20341566 0.09663314 -0.08123231 0.010949714
0000b0 f0 d0 42 be 9f 07 18 be 94 be 45 3b f0 d0 44 3e
       -0.19025016 -0.14846657 0.0030173408 0.19220328
0000c0 72 df ce bb 1e fd a7 bd c3 38 4b be 74 fb c3 3d
       -0.006313258 -0.08202575 -0.19845872 0.09569445
0000d0 45 7b 34 be 38 ce 2f 3d 9c 70 67 be 4f 18 9a 3d
       -0.17625149 0.042921275 -0.22601551 0.07524168
0000e0 17 65 12 be 90 39 8e 3d 86 c3 47 be 02 3c f4 bc
       -0.14296375 0.06944573 -0.1950818 -0.02981377
0000f0 1b 1d 29 3e 2c fc 17 be 3a 29 16 3e 4c 10 6c be
       0.16515009 -0.1484229 0.14664164 -0.23053092
000100 fa 35 f1 3d 37 5a 32 bd 33 1f 83 bd 9e 23 6b 3d
       0.11777873 -0.043543067 -0.06402435 0.057407014
000110 5e 84 f4 bd 5e ea c9 3d 94 3d c5 3c b1 bd 37 be
       -0.119393095 0.09859155 0.024077214 -0.17943455
000120 ee 06 8d 3e dd af 9d 3d 77 d4 05 3e 66 dc 8b bd
       0.2754435 0.07699559 0.1306933 -0.06829147
000130 16 51 0c bd 2f 9a 8f bd ca d0 bd 3d 29 af 4d 3d
       -0.034257017 -0.0701183 0.09268339 0.050215874
000140 78 11 31 3d 5e f3 03 be c0 50 21 3e 93 7d 4e 3e
       0.04322955 -0.12885806 0.1575346 0.2016509
000150 b9 64 07 3e b7 8d df 3d 83 a8 cf bd 89 80 61 3e
       0.13222016 0.10915702 -0.10139563 0.22021689
000160 fa 71 53 be e8 04 c7 3d 5e ce 88 be 8b dd 56 3e
       -0.20648947 0.09717733 -0.26719946 0.2098295
000170 31 bd 68 3e ca f6 5a 3e 44 9d 22 3d 56 96 58 3e
       0.22728421 0.21383205 0.03970076 0.21151099
000180 ac 09 16 be 43 1c ba bd 23 9f 4a bd 9e 9c 91 be
       -0.14652127 -0.09087422 -0.04946817 -0.28439802
000190 6a c5 98 bd 18 a7 f4 bd b7 48 fb bd 37 ad ad 3d
       -0.07459529 -0.11945933 -0.12269729 0.08480304
0001a0 d5 bc 00 bd 73 05 f0 3d 4c 18 81 bd b3 bf 51 be
       -0.031430084 0.11719789 -0.063034624 -0.20483284
0001b0 ca ed e2 3d 5b ac 6d bd 13 d7 fc 3d 12 24 77 3e
       0.11080511 -0.0580257 0.1234571 0.24134853
0001c0 43 b2 02 3d 7b 03 56 be 5a 2c f8 3d f2 35 97 bc
       0.031908285 -0.20899765 0.121178344 -0.01845834
0001d0 d0 94 eb bb f4 6d 65 3d 1f 11 76 bd ba 05 8d be
       -0.0071893707 0.056013063 -0.06007492 -0.27543432
0001e0 3c a8 a7 bd 5e 07 9a 3d 97 b6 b9 bc 03 45 52 3e
       -0.08186385 0.075209364 -0.022670073 0.20534138
0001f0 f8 7a 56 be c3 7a ae 3d 39 d4 a6 3d e0 b4 4f 3e
       -0.20945346 0.08519509 0.08145947 0.20283842
000200 d4 7a 39 bc 67 90 34 be 5e 4d 88 3e 16 75 59 3e
       -0.011320788 -0.1763321 0.26621526 0.21236071
000210 4c 9b e1 bd 8e 2d 19 be d3 af b2 bd fc 8e 35 be
       -0.11015949 -0.14958784 -0.08724942 -0.17730325
000220 52 11 92 bd 15 fc 36 3e c3 e4 7d 3e aa 6e 19 3d
       -0.0713221 0.17869599 0.24794297 0.037459053
000230 70 aa 4c bc fd 0e d9 bd 56 ea 63 3e f4 33 f7 bd
       -0.012491807 -0.10598562 0.22257361 -0.12070456
000240 94 0b 6f 3e a4 68 8c be 83 a9 04 be 20 36 51 be
       0.2334426 -0.27423584 -0.12955289 -0.20430803
000250 7e 40 4a 3e ff 1a 09 3d 7e 1d 86 be e9 83 1a be
       0.19751164 0.03347301 -0.26194376 -0.15089382
000260 8f 24 75 3e 7f 9c 81 bd 91 5a 94 3e 0c c3 46 3c
       0.23939727 -0.063286774 0.28975347 0.012131464
000270 6f 76 bf bd 04 ad 52 be b2 50 41 bd a8 8c 5f be
       -0.09348761 -0.20573813 -0.047196098 -0.21831
000280 ef 45 24 be 96 16 29 bc 8e 40 bc bd 71 0b 12 be
       -0.16042303 -0.010320326 -0.09192 -0.14262177
000290 2a cc e9 bd 6b 99 fe bd e0 7e 85 be 31 eb 1d 3e
       -0.11415894 -0.12431606 -0.2607336 0.1542175
0002a0 1d d6 17 be 30 73 42 be 63 9a 14 3e 9c 5f 36 be
       -0.14827771 -0.18989253 0.14512019 -0.1780991
0002b0 22 59 64 bd 42 ac 8e 3e bc e1 66 bd 92 ef 01 bd
       -0.055749066 0.27865797 -0.05636762 -0.031722613
0002c0 b3 6e 00 bd 76 2d 83 be 4b 3c 0c 3e 88 ea 2e 3e
       -0.03135557 -0.2562062 0.13694875 0.17081654
0002d0 ea 6a 63 be 90 8f 54 3e f7 8d f8 3d db 41 57 3e
       -0.22208753 0.2075789 0.12136453 0.21021216
0002e0 6a ad 68 3d 90 0d de bd bc 59 f0 bd bc 33 6e 3e
       0.056806006 -0.108424306 -0.117358655 0.23261923
0002f0 f6 c5 1c be e7 67 81 3e f3 eb 98 bb 1a 5b b3 bd
       -0.15309891 0.25274584 -0.004666799 -0.087576106
000300 a5 cd eb 3c 04 ff 99 bd c1 5a 1a 3e ac f1 63 be
       0.028784582 -0.075193435 0.15073682 -0.22260159
000310 12 0d 35 3e 9f d4 82 3e cf 99 4b 39 74 67 c7 3d
       0.17680767 0.25552842 0.00019416887 0.09736529
000320 74 88 84 ba 5c de 49 3d 03 dc 30 be e9 9e c8 bc
       -0.0010111467 0.049284324 -0.17271428 -0.024489837
000330 cb 47 fd 3d 79 de 47 3e ad ff 81 be 03 55 e8 bd
       0.12367209 0.1951846 -0.25390378 -0.1134434
000340 f8 a5 2a 3e ab 06 27 be e2 88 56 bd 9b 59 04 be
       0.16664875 -0.16311137 -0.052376635 -0.12924807
000350 22 ba 7e 3e b9 3e 99 3e 9f 87 7b be a3 02 4f bd
       0.24875692 0.29930666 -0.24563454 -0.050539624
000360 44 ce 15 be 35 35 5c be 16 7b 82 3e 3c 72 6f 3e
       -0.14629465 -0.21504672 0.25484532 0.2338342
000370 fc 67 07 be f4 f4 75 be 89 06 c0 3d b7 13 1b be
       -0.1322326 -0.24019223 0.093762465 -0.1514424
000380 3f 59 61 3e 20 3a 24 be fc fb 03 3e ab f0 13 3c
       0.22006701 -0.16037798 0.12889093 0.009029548
000390 46 e9 12 be 3b 9b 4c be b2 99 5c 3d 25 ff e1 bd
       -0.14346799 -0.1998109 0.053857513 -0.11034993
0003a0 d2 20 aa bd 2d ce 87 be 06 03 a4 bd ef 17 a4 bd
       -0.08307041 -0.26524487 -0.08008389 -0.080123775
0003b0 c4 a0 d1 3c ba aa 0f bd 31 b5 97 bd 13 8c 00 3e
       0.025589354 -0.035074927 -0.074076064 0.12553434
0003c0 3f d9 dd bd 2e 33 8a 3e 72 cd c6 3d 0c 1c f0 bd
       -0.10832452 0.26992172 0.09707154 -0.117240995
0003d0 46 de 50 3e 9e 23 48 3e 74 99 39 3e 34 2b ef bd
       0.2039729 0.19544837 0.18124944 -0.11678162
0003e0 17 ee af 3c 1e 5a 59 bd 25 37 ca 3c 87 5a 77 be
       0.021475835 -0.053064458 0.024684498 -0.24155627
0003f0 0b 51 14 3e b4 36 5f be b3 62 01 be 10 5c bc 3d
       0.1448404 -0.21798211 -0.12635307 0.09197247

encoder.4.block.4.bias f4 [40]
000000 50 2f 26 39 06 57 0e 3a f8 f7 f7 37 a6 bc 24 bb
       0.00015848619 0.00054298376 2.9560164e-05 -0.0025136857
000010 c5 76 8c ba b6 7d 1b bb 89 d1 89 ba 3a 98 ee b9
       -0.0010716548 -0.0023726053 -0.0010514717 -0.00045508315
000020 90 e4 2b 3b e6 c9 d5 b7 b6 f2 17 3a a9 89 2e 3a
       0.0026228763 -2.5485595e-05 0.00057963596 0.0006658086
000030 7a 3b 8a ba 77 68 96 3a 33 a6 e7 3a 7a c2 93 b7
       -0.001054629 0.0011475225 0.0017673433 -1.7614326e-05
000040 6b 3e a0 b9 ef 84 3a bb 44 9e ac 38 a6 7b 31 ba
       -0.00030564083 -0.0028460582 8.2310784e-05 -0.0006770439
000050 ea 60 45 3b 5e 37 13 bb ca 52 01 37 8a f9 5f ba
       0.003011758 -0.0022463421 7.708275e-06 -0.0008543959
000060 76 c7 29 bb 8b 31 54 ba ac 1d cc 3a 67 47 a3 3a
       -0.0025906241 -0.00080945407 0.0015572808 0.0012457193
000070 d8 d1 ee 38 41 0d b0 39 80 7a 03 3a 14 e7 cf b9
       0.00011387811 0.0003357921 0.00050155073 -0.00039654283
000080 a9 f4 0b 3a f4 7b 33 3a b5 c9 09 3b d1 70 30 bb
       0.00053388864 0.00068467786 0.0021024768 -0.0026922713
000090 5c 69 e5 3a 8c d8 34 ba 28 9e 11 b9 87 49 14 ba
       0.0017502713 -0.0006898723 -0.00013887195 -0.00056567084

encoder.4.block.5.weight f4 [40]
000000 c1 f7 91 3f 23 4c 84 3f 03 21 83 3f 6d 93 87 3f
       1.1403733 1.0335735 1.0244449 1.0591866
000010 37 c6 8f 3f de 12 88 3f 91 af 9a 3f d6 ae 95 3f
       1.1232365 1.0630758 1.2084829 1.1693981
000020 8e 87 8e 3f 21 1e 91 3f ca 74 82 3f 91 10 86 3f
       1.1135118 1.133732 1.0191891 1.0473806
000030 96 23 89 3f ff 20 87 3f 8f da 85 3f cd 02 85 3f
       1.0713985 1.0556945 1.0457324 1.039148
000040 d6 fe 8c 3f 6c 59 88 3f 7c ee 92 3f 53 2c 8a 3f
       1.101527 1.0652289 1.147903 1.0794777
000050 64 c7 96 3f a4 0e 8a 3f b0 c9 89 3f 8b 15 8f 3f
       1.1779599 1.0785718 1.0764675 1.1178449
000060 cd 1d 85 3f ef 83 90 3f ff b8 87 3f 4e fe 8d 3f
       1.039972 1.1290263 1.0603331 1.1093233
000070 28 84 8b 3f 20 0f 89 3f 8e 2f 8c 3f ee 0d 91 3f
       1.0899706 1.0707741 1.0952013 1.1332376
000080 01 59 83 3f 24 d3 82 3f 3a 11 87 3f 5b 5d 87 3f
       1.0261537 1.0220685 1.0552132 1.0575365
000090 62 68 8d 3f 5c 62 8c 3f 6d 8c 92 3f 05 e8 82 3f
       1.104748 1.0967517 1.1449105 1.0227057

encoder.4.block.5.bias f4 [40]
000000 d3 fb a6 3c b7 0e 89 3c 84 99 2d bc d6 07 96 ba
       0.020383751 0.01673065 -0.010595683 -0.0011446427
000010 88 9d 2e 3d 97 7e 64 3b 02 e8 51 bb ff 9e 24 3c
       0.042630702 0.0034865492 -0.0032029157 0.010047673
000020 36 77 cc 3c 8c d1 02 3d ec e2 af 3c e4 6a 98 3b
       0.024959188 0.03193812 0.02147051 0.004651414
000030 d9 cc 7a ba a5 af dc 3b 0f 16 e6 3c 1d 05 bf 3c
       -0.0009567268 0.0067348056 0.02808669 0.023317868
000040 35 66 98 3b 60 f6 8a 3c 1e 49 f3 3b 1d 8e 54 3d
       0.004650856 0.016963184 0.0074244877 0.051893342
000050 2d c4 90 3c f9 4b c2 3b 0f 93 4f 3c db 71 c9 bb
       0.017671669 0.005929467 0.012669339 -0.006147606
000060 dd 6b cb bb 5b 42 02 3b 1d 62 b2 3c d7 d6 b4 3c
       -0.0062079267 0.0019875977 0.0217753 0.0220751
000070 f1 24 f8 3c 8c 9e 44 3c 14 e4 e4 3b 8e 2a 2c 3d
       0.030291053 0.012000691 0.006985197 0.04203277
000080 38 48 ef 3c 24 a7 48 3b 97 3f 8f 3c 02 ab 76 3c
       0.029209241 0.0030617202 0.017486377 0.01505542
000090 55 85 cf 3b e6 54 15 3d 94 21 0f 3a ad 57 c5 3c
       0.006333033 0.03645792 0.00054600206 0.024089659

encoder.4.block.5.running_mean f4 [40]
000000 36 cd 2b 3f 4f 0c aa be 45 bc ce 3d 72 43 d4 bd
       0.6711 -0.33212516 0.10094503 -0.10364427
000010 f6 81 9e bd 48 68 db be 70 36 8c 3e c9 4a b1 bd
       -0.07739632 -0.42852998 0.27385283 -0.08656842
000020 4a c1 af be 0e 9f 82 be 1e 4d c2 3d 60 b6 24 3f
       -0.34327155 -0.25511974 0.09487365 0.6434078
000030 74 55 58 3d a4 bf af be 60 73 c9 3e ba bc 98 3d
       0.05281587 -0.34325898 0.39345837 0.07457872
000040 ea cd 4d be fe b4 63 be af a5 35 be a3 3d 86 3e
       -0.20098081 -0.22237012 -0.17738985 0.262189
000050 fb 6a ad 3b 1d 33 b0 be 6a c5 87 bd 80 a5 92 bc
       0.005292294 -0.34413996 -0.066294506 -0.017901182
000060 e6 5b 0a 3e a5 31 17 3f bd 17 19 bf a0 ae 24 3d
       0.13511619 0.59060127 -0.59801847 0.040205598
000070 da ab 38 be 70 10 c3 3e d0 1f 87 3d f7 7e e2 3e
       -0.18034306 0.38098478 0.06597865 0.4423749
000080 7e 80 ea 3e 79 a5 1b bf 14 95 be 3e d0 d1 23 3e
       0.45801157 -0.60799366 0.37223113 0.15998006
000090 c1 14 98 be 49 09 0f 3d cd 9c 1e bf fc b6 11 3d
       -0.29703334 0.034920964 -0.6195801 0.035574898

encoder.4.block.5.running_var f4 [40]
000000 fc f8 a6 3e ab 99 99 3e 9d de 71 3e 1c 85 ac 3e
       0.32611835 0.30000052 0.23620076 0.33695304
000010 a5 32 6b 3e fd 59 53 3e 7e 8b 6e 3e d7 9b 86 3e
       0.22968538 0.20639797 0.232954 0.2629077
000020 61 f0 5d 3e fd ff a4 3e 39 82 80 3e f1 2a 9a 3e
       0.21673729 0.32226554 0.25099352 0.30110887
000030 03 60 80 3e 17 10 8a 3e d4 66 b9 3e 16 75 a2 3e
       0.2507325 0.269654 0.36211264 0.31729954
000040 a0 da 78 3e a3 16 2f 3e 5b 05 0f 3e b5 45 7e 3e
       0.24302149 0.17098479 0.13966887 0.24831279
000050 d9 8e 6b 3e b3 6a 9b 3e 21 16 37 3e 5f 96 7a 3e
       0.23003711 0.30354843 0.17879535 0.24471425
000060 d2 9a 7d 3e 73 cb 69 3e ce ea 7c 3e 3e 0c 65 3e
       0.2476609 0.22831516 0.24698946 0.22367951
000070 5d 63 82 3e 36 0f 69 3e 76 2d 97 3e dc 19 4f 3e
       0.25466433 0.22759709 0.2952687 0.20224708
000080 d1 eb 80 3e 9c d0 2f 3f 9b 13 ad 3e 40 52 71 3e
       0.25179914 0.6867769 0.3380402 0.23566532
000090 f2 e3 86 3e fb 20 7f 3e a6 63 0c 3e 79 19 8a 3e
       0.26345783 0.24914925 0.13709888 0.2697256
